trained_models/Emerson2017_vfam_weight/best_model.pth (torch, 126871 bytes, 6 tensors)

fc1.0.weight f4 [128, 120]
000000 cd 24 36 bd 4a a2 bb 3d 39 6b 04 3c 68 a1 02 bd
       -0.04446869 0.091618136 0.0080822045 -0.03189221
000010 9b e0 a6 3c 82 27 81 bd 51 09 ed 3c 63 5b 12 3d
       0.020370772 -0.06306364 0.028935106 0.035731684
000020 e5 65 67 3d 85 b1 82 ba ec 8f f5 bb 2e 64 ca bd
       0.05649366 -0.0009971118 -0.0074939635 -0.09882389
000030 a2 a8 4e ba 22 c5 9e bc 6b dd 52 3d 77 6b 9a 3d
       -0.00078834046 -0.01938111 0.051480692 0.075400285
000040 68 7b bf 3d fd ad 64 bd 5a 3b 92 3d 85 b7 bc bc
       0.0934971 -0.05582999 0.07140227 -0.023036728
000050 15 ed 1f bd 7e 7e b5 bb ed 01 61 bd ea d2 48 bd
       -0.03904446 -0.0055387607 -0.054933477 -0.04902927
000060 17 ce 5a 3d ad 44 22 3c 5a 67 e2 3d 0b 73 21 bd
       0.0534192 0.009904069 0.11054869 -0.039416354
000070 0e 07 a8 3d d6 35 a7 3d 74 bc d8 ba 71 9b 79 bd
       0.082044706 0.08164565 -0.0016535656 -0.060939256
000080 b1 e1 c3 3c 57 70 8d 3d 75 9b 11 bd cd 3b a7 bb
       0.023911329 0.06906193 -0.035548646 -0.0051035644
000090 0a ce 35 3d 5f 86 8e bd 08 e0 c9 bd a6 75 07 3d
       0.044385947 -0.06959223 -0.09857184 0.033071183
0000a0 02 79 d3 3c 47 b6 40 3c 00 70 d8 3c 56 9a 13 bd
       0.025814537 0.011762208 0.026420593 -0.036035858
0000b0 da 23 6f 3d b1 41 7c 3d 3f bd d0 bd 85 59 51 3d
       0.0583838 0.061586086 -0.10192346 0.051110763
0000c0 57 ea 47 bd 6d 1b ca 3d 1b 76 b0 bd 2d b7 1d 3d
       -0.04880747 0.09868512 -0.08616277 0.03850477
0000d0 77 a9 90 3d 80 fc 37 3c 51 6f ae 3d 00 07 28 bd
       0.07063573 0.011229634 0.08517326 -0.0410223
0000e0 93 ec 86 bd ce 02 5b 3d ac 5d 9c 3c b0 63 9c 3c
       -0.06588092 0.05346947 0.019087635 0.019090503
0000f0 8f 14 85 bd c0 96 62 3b 84 e2 f5 bd 87 f5 94 3d
       -0.06498062 0.0034574717 -0.12006095 0.07273393
000100 34 a2 9b bd 4f 53 9c bd 65 f2 54 3d 65 1f 03 bd
       -0.07599297 -0.07633077 0.051988978 -0.032012362
000110 26 ea 4d bd de f2 a1 bc fb 93 e9 bc 79 d5 dc bd
       -0.05027213 -0.019769128 -0.028512945 -0.10782904
000120 46 17 84 bc da 0e 14 bd 24 50 de 3d d2 81 86 3c
       -0.016124379 -0.036146976 0.10855129 0.016419325
000130 8f 54 60 bd b6 61 dd 3d 83 6a 81 3b 09 42 b5 3c
       -0.05476814 0.108096525 0.0039494648 0.022126215
000140 55 f4 0d 3d 4b ed a8 3d 77 4f b3 bd fd 6d 33 3d
       0.03465684 0.08248385 -0.08755391 0.043806065
000150 2a f8 db 3a 0b 5f 9d 3a cc 81 a7 3d c6 9e ad bb
       0.0016782333 0.0012006474 0.08179054 -0.0052984683
000160 9c b4 22 bd 63 56 19 bd cb b3 4b 3d ff 63 9b bd
       -0.039723024 -0.0374359 0.04973201 -0.07587432
000170 78 5b 4e ba 70 62 7e bd 6c 9a 16 3d 38 3f 3d bc
       -0.0007871906 -0.062105596 0.036768362 -0.011550717
000180 d0 d4 c8 3c 8a 8b 25 bd e2 63 8c bd 72 5e 6b 3c
       0.02451554 -0.040416278 -0.06854989 0.014365779
000190 5c 35 d2 3d b3 78 63 3d 5e da 27 3d d1 98 f7 bc
       0.10264084 0.05553503 0.040979736 -0.030224236
0001a0 a3 9d 9d bd cf fa d0 bc e5 12 8f 3c 07 dd eb 3c
       -0.076960824 -0.02551022 0.017465064 0.028791917
0001b0 25 8b 8e bc 74 a2 cf 3b 72 55 17 3d 1c ad 99 3d
       -0.017400334 0.0063365046 0.03694672 0.07503721
0001c0 4b 91 a8 bd 1f ab 58 bd 9b f2 7d bd e2 68 97 3d
       -0.082308374 -0.05289757 -0.061998945 0.07393052
0001d0 a8 88 95 bc 25 93 83 3c 96 80 ac 3d ed 0f 25 3b
       -0.01825364 0.016061375 0.08422963 0.0025186494
0001e0 84 7d ec 3c 60 1c 11 bd 2c 1c 0b bd be 0c ac bc
       0.028868444 -0.03542745 -0.033962414 -0.02100217
0001f0 97 35 56 3d 8b 32 8c 3d f5 35 3f bd dd 7a ab 3c
       0.0522972 0.06845578 -0.046682317 0.02093261
000200 5e d1 41 bd 97 91 78 bd c4 38 db bd b8 47 64 3d
       -0.04731881 -0.06068572 -0.107041866 0.05573246
000210 b3 0a 48 3d d0 c3 c6 bc fa 29 54 bd df 92 16 bc
       0.04883833 -0.024263293 -0.051797844 -0.00919029
000220 35 08 e1 3c 21 b8 8c bd 04 00 14 bd 86 19 9d bd
       0.027469734 -0.06871057 -0.036132827 -0.07670884
000230 49 e4 81 bc 34 a8 15 3d 55 9a 0b bd 3c 9d 43 bd
       -0.015855925 0.036537364 -0.03408273 -0.047757372
000240 56 7b aa bc e8 3b 8d bd d3 84 9c bd ef ed 00 3d
       -0.020810764 -0.06896192 -0.07642522 0.03147691
000250 85 a2 23 3d 51 95 aa 3d 98 86 91 bd c0 e6 0b 3d
       0.039949913 0.08329261 -0.0710575 0.034155607
000260 a6 59 b1 3d cb d8 f5 3d 9b e8 b3 bd 46 b6 16 3d
       0.08659677 0.120042406 -0.087846 0.036794923
000270 a0 65 e4 3c b6 9e 1f bd ae f4 8f bd 9a c6 bf bd
       0.02788049 -0.038969718 -0.07029091 -0.09364052
000280 1a 2d c0 bd 97 6b 8d bd fa f6 b0 3d d4 f1 84 3d
       -0.093836024 -0.06905287 0.08640857 0.064914376
000290 d7 2e ba 3c f6 4c ae bd 45 7a e8 3c 49 03 b3 bd
       0.022727413 -0.08510773 0.028378615 -0.08740861
0002a0 d1 92 57 3c 4a bd 8e bd cb 06 22 bc 43 10 1d 3d
       0.013157562 -0.06969698 -0.009889315 0.038345587
0002b0 80 86 1a 3c 0d 1d ae 3a 6c 51 26 bd ad 62 15 bd
       0.009431481 0.0013283804 -0.040604994 -0.036471058
0002c0 9b 68 5d 3d 76 87 f1 3b 9c db 8a 3d 4b d8 45 bd
       0.054054838 0.0073708845 0.067801684 -0.048301976
0002d0 52 e1 bc bd 94 0d 03 bd 1c 4d 51 3c 4f 40 9a bd
       -0.09222664 -0.03199537 0.012774732 -0.07531797
0002e0 28 d9 22 3d c8 a5 4a 3d 8f a5 05 bc dc b2 37 3c
       0.039757878 0.049474508 -0.008157148 0.011212077
0002f0 9e 78 48 bd cd 10 ce 3d fd 3d 8d bd 19 ec 3b bd
       -0.048943155 0.10061798 -0.06896589 -0.045879457
000300 77 b4 42 3d a6 6f 6c 3d 32 27 77 bc 52 29 4a 3d
       0.047535386 0.057723664 -0.0150850285 0.049355812
000310 45 27 0a 3c 33 36 90 3d 19 47 ef 3d ae 9b ae 3d
       0.008432214 0.07041588 0.11683483 0.08525787
000320 a2 07 47 3d 2d 47 0f 3d f7 d5 1e bc 47 c2 87 3c
       0.048591264 0.034979988 -0.009694568 0.01657213
000330 b6 66 c1 bd 4a 6d 08 bd 37 6c 8d 3d c5 9c f5 3c
       -0.09443419 -0.03330735 0.06905406 0.02998198
000340 f1 e3 71 bd 4d 1e e2 3c 1d 77 b2 3c 2e ec 75 bc
       -0.059055272 0.02760234 0.021785313 -0.015009923
000350 61 4c cb 3d 6e c1 64 3d 92 76 02 bd 89 3e 34 bd
       0.099266775 0.05584853 -0.03185136 -0.04400495
000360 dc aa e8 bc 34 df ad 3c 71 25 65 bd 38 94 2d bd
       -0.028401785 0.021224596 -0.05594391 -0.04237768
000370 3e b5 5f bd 0a 59 96 bd ae 45 b6 bd 44 ae be 3d
       -0.054616205 -0.073412016 -0.08900009 0.09310582
000380 79 75 95 bd de 6f 19 3d eb 58 73 bd dc 9d c7 bc
       -0.07297797 0.0374602 -0.05941097 -0.024367265
000390 bb ba d0 3c 94 ff c0 3c 18 7e 88 3d 8c 3e 01 3d
       0.025479665 0.02355937 0.066646755 0.03155379
0003a0 e5 73 25 3c 46 88 a5 bd bf e9 45 bb 5f ce cf 3d
       0.010098432 -0.08082633 -0.0030199138 0.10146784
0003b0 75 df 8b 3d ef 60 e2 bb 0d ec 5e bd 19 72 5b 3c
       0.068297304 -0.006908528 -0.054424334 0.013393902
0003c0 4b 08 e2 bd 47 5d 87 3d 20 94 42 bd cb 01 66 3d
       -0.11036738 0.06609588 -0.047504544 0.056154054
0003d0 07 1b 8c bd de 4b 4d bd 4d 4a 27 bd 37 89 57 bc
       -0.068410926 -0.05012118 -0.040842343 -0.013155273
0003e0 9f b6 5b bd 48 42 b0 3b 9f cb b0 3d 17 b5 10 bc
       -0.053640958 0.005378995 0.08632588 -0.008832238
0003f0 83 0c 15 3d 74 8f 3c 3c 83 3c cf bb 4e 1f bd bd
       0.036388885 0.011508811 -0.006324352 -0.092344865

fc1.0.bias f4 [128]
000000 db b0 cc bc 59 d5 80 3d e5 8d ce bc 69 56 6c 3d
       -0.024986675 0.06290693 -0.025214145 0.057699595
000010 d9 8b 57 bd c6 b4 1b bd 3c af 83 bd 47 ab 2d 3d
       -0.052623603 -0.038014196 -0.06429908 0.04239967
000020 7e 4a 57 3c 10 16 fe bc e6 16 4a 3b fd 0d 3e bd
       0.013140319 -0.03101638 0.0030836402 -0.04640006
000030 17 3a ff 3c a6 51 41 bc 97 06 86 bd 86 07 aa bd
       0.03115563 -0.011799252 -0.06544226 -0.08302216
000040 47 d6 3d bd a8 44 05 3d 07 c0 ce bb 7f ae 00 bc
       -0.04634693 0.03253618 -0.0063095125 -0.007854103
000050 59 df ca 3c 06 d1 bf bd 66 80 cd bc cb d4 42 bd
       0.024764704 -0.0936604 -0.02508564 -0.047566216
000060 6c 64 98 3c 0d 16 ea 3c 59 df 95 3c c0 f2 88 3d
       0.018602572 0.028574968 0.018294977 0.06686926
000070 74 00 bc 3d a2 85 69 bc 2e 9a b5 3d 1b 1f 84 3a
       0.09179774 -0.014253052 0.08867298 0.0010080071
000080 e6 ff 9d bd a3 41 d5 bc eb 5b d6 bc e5 07 5f bd
       -0.077148244 -0.026032275 -0.026166877 -0.05445089
000090 33 b5 a4 bd 09 bd 25 3c 74 4b 83 3d bf 19 77 3d
       -0.080423735 0.01011587 0.06410876 0.060327288
0000a0 42 a0 08 3d 2e 79 b4 bc 01 5d a5 3c 23 7f 16 bd
       0.03335596 -0.02203044 0.02018595 -0.03674234
0000b0 6c 90 66 bd 74 4c b9 3c e5 7c ad 3b 41 d8 4b bd
       -0.056290075 0.022619464 0.0052944296 -0.049766783
0000c0 c3 d5 94 3c 3c a4 a9 bd ca 6e 87 bc 46 a2 35 3d
       0.018168336 -0.08283278 -0.01653232 0.04434421
0000d0 0c 5d 97 bd d0 0b 56 bd 45 f7 fe bc 78 6e 32 bd
       -0.07390794 -0.05225736 -0.031123767 -0.043562382
0000e0 b2 d5 f5 3c 3e 28 bc bc c4 5a 86 3d 1e 61 2b 3d
       0.030009124 -0.022968408 0.06560281 0.041840665
0000f0 82 78 19 bd ef df 04 bd db f0 a4 bd 2c c7 6c bd
       -0.03746844 -0.032440122 -0.08053752 -0.057807133
000100 22 6c 37 bd cd 89 be 3b 9f ad 95 3d 79 ea 3f 3c
       -0.044780858 0.005814767 0.07308506 0.0117136175
000110 38 f6 7a bb 4b 82 07 3d ea 3c 86 3d a4 35 c4 bc
       -0.003829373 0.03308324 0.06554587 -0.02395136
000120 29 c0 9f bc 67 33 9e bd b8 40 69 bd b3 de 79 3c
       -0.019500809 -0.07724648 -0.056946486 0.01525085
000130 22 ad 89 3d 2c 4e 4e 3d c3 71 6b bd 97 46 ee bc
       0.067224756 0.05036752 -0.05748154 -0.029086394
000140 70 2d 9a 3c 34 ef d2 bc 4f 6e 61 bd e6 c6 94 3c
       0.018820494 -0.025748827 -0.05503684 0.018161248
000150 14 c8 8f bd a8 a5 8e 3d 34 44 40 3d 78 89 2e bc
       -0.07020584 0.0696519 0.046940044 -0.010652892
000160 54 d5 b0 3d 22 99 9f 3d b1 d6 f1 bb 43 51 76 3d
       0.08634439 0.0779288 -0.0073803295 0.06013609
000170 39 44 46 3c 87 a0 89 3d 84 78 89 3d 10 da 99 3d
       0.0121012265 0.06720071 0.0671244 0.07512295
000180 8c 53 81 3d fe aa a8 3d f4 cf 32 3d 68 05 d4 bb
       0.063147634 0.08235739 0.04365535 -0.006470371
000190 77 ab c8 3d f4 01 a0 3d 5c aa 82 3c 32 8e 8c b9
       0.09798329 0.078128725 0.015950374 -0.00026808825
0001a0 07 c5 5d 3d 5b 9b 0e 3d 87 74 c7 3c 28 b6 cf 3c
       0.054142978 0.034816127 0.024347557 0.025355414
0001b0 e3 d9 8a 3d c5 c1 20 bd d3 c3 6e bd 8f 06 94 3c
       0.0677984 -0.039247293 -0.05829222 0.018069534
0001c0 96 95 1c 3d 6f 66 c8 3d 8c dc 9a 3c 61 98 33 3d
       0.038228594 0.09785163 0.018903993 0.04384649
0001d0 7b 69 36 3d 15 58 4c bd 2f 50 a4 3d 6b ff 4a bc
       0.044534188 -0.04988869 0.08023106 -0.012389998
0001e0 c1 fc 3c bd 4d a8 9d bd bd 3c 9a bd f4 a9 68 bc
       -0.046139482 -0.076981165 -0.07531116 -0.014200676
0001f0 62 7d 22 bb c9 dd 9a bd 0d d1 7f bd f5 fe 95 3d
       -0.0024793972 -0.075618334 -0.062455226 0.0732402

fc2.weight f4 [120, 128]
000000 de c7 7c bd e1 ab 62 bd ca 8a 5f bc 0a d8 a0 bd
       -0.061714046 -0.055339698 -0.01364393 -0.07853706
000010 95 db a3 bd 3f 19 38 bd 80 f3 fa bc d1 1c 95 bc
       -0.08000866 -0.04494595 -0.030633688 -0.018202217
000020 b2 c2 8e bd 59 e9 16 bd 0d e6 9a bd 64 34 01 3d
       -0.06970729 -0.03684363 -0.0756341 0.031544104
000030 fc bb e9 3c 1b 47 15 3d e5 90 2c 3d 88 79 6e bd
       0.02853202 0.036444765 0.04213037 -0.05822137
000040 c0 36 56 bd 06 28 4d bd c5 7a a5 bd ab f7 db bd
       -0.052298307 -0.050086997 -0.08080057 -0.10740598
000050 37 5b 51 3d a8 42 14 bd ca 4d 12 bd 48 0f 0d bd
       0.05111238 -0.03619638 -0.035718717 -0.0344384
000060 5e 38 9c bc 7c c6 b8 bb e8 ad 30 3d 71 f1 9e 3d
       -0.019069847 -0.0056388956 0.0431346 0.07760895
000070 21 7d b9 3c bf be a9 bd 36 19 5b 3d f0 e4 6a bd
       0.022642674 -0.08288335 0.05349084 -0.057347238
000080 38 f2 c4 3d 58 fd a5 3c 4e 11 6c 3d 77 df 8d 3d
       0.09616512 0.020262405 0.05763369 0.06927388
000090 8d a6 80 3d bd 80 e7 3d 53 87 b2 3c 72 30 6a 3d
       0.06281767 0.11303852 0.021793043 0.057175107
0000a0 14 c9 98 bd 52 62 3f bd ec 19 73 3b 63 9a 00 3d
       -0.074602276 -0.046724625 0.0037094308 0.031397235
0000b0 24 9d e7 3c 95 a7 a8 bc 2c f3 f6 bd 60 6f 5f bd
       0.028273173 -0.020587722 -0.120581 -0.054549575
0000c0 cf 4f 21 bd 33 3a ef bd 92 5e c3 3d be 49 05 bc
       -0.039382752 -0.116810225 0.09539522 -0.008135257
0000d0 36 09 e1 bb b8 00 7d 3c 84 2f c0 3d 8b aa a8 bb
       -0.006867553 0.015442066 0.09384063 -0.0051472834
0000e0 e7 60 41 3d 99 e9 00 bd 14 3f e8 bb a5 e4 9d bc
       0.047211554 -0.031472776 -0.0070875976 -0.019274065
0000f0 27 b0 98 3d 9d 83 bb bd 6b c1 95 3d 2a ea 87 3d
       0.074554734 -0.091559626 0.07312282 0.0663646
000100 f2 22 a9 3d bd d2 a2 3d ce 3d 01 3d 60 71 55 bd
       0.082586184 0.079503514 0.031553082 -0.052110076
000110 1a c8 e1 3d 46 61 e4 3d 08 fe b8 3d c5 52 a3 3c
       0.110244945 0.11151366 0.090328276 0.019936929
000120 3b 3a b0 bd 44 ad 22 3c 1f 8f 65 3d 0d 26 e4 3c
       -0.086048566 0.009929005 0.056044694 0.027850175
000130 39 fd 9b bd 5a 0d da 3c 7c a4 be 3d aa 4b 2c 3d
       -0.07616658 0.026617695 0.09308717 0.042064346
000140 06 26 08 3d 8a b6 4a 3d e0 d6 3c bd 75 6e 26 bd
       0.033239387 0.04949049 -0.04610336 -0.040632684
000150 b9 5a f4 3c 92 a1 c0 bd 72 5f f4 bc e4 16 97 3c
       0.029828416 -0.09405817 -0.029830668 0.018443532
000160 1a 16 8f bd 80 7e 9a 3d bc b3 ff 3c d9 2d 15 3d
       -0.069866374 0.07543659 0.031213634 0.036420677
000170 56 14 ef bd 5c 29 2c bd 60 9a 04 bd 31 f5 9b bd
       -0.11673801 -0.04203163 -0.032373786 -0.07615126
000180 4f bb 94 bd 1d 5e 87 bd 40 48 2b 3d 38 b8 55 bd
       -0.07262289 -0.066097476 0.04181695 -0.052177638
000190 d4 50 c0 3b c9 2b 82 bd 16 90 56 bd 72 ea aa 3d
       0.0058690105 -0.063560076 -0.052383505 0.08345498
0001a0 34 34 21 bd f5 98 d2 3d 70 74 88 bc 8b 97 d2 3d
       -0.039356425 0.102830805 -0.016657084 0.10282811
0001b0 0a f3 67 3d 99 0e 25 3d 1f 59 0e bd 32 93 c4 3d
       0.056628264 0.040297125 -0.03475296 0.09598388
0001c0 a3 da 83 3d b8 2f a9 bc c6 f9 a5 bd f2 8f 77 3d
       0.06438186 -0.020652637 -0.08104281 0.06044001
0001d0 2a ca ac bc c8 5d fb 3d d3 d3 32 3d 11 2a 05 3b
       -0.021092493 0.12273747 0.043659043 0.0020319263
0001e0 55 1e 07 3d aa d3 e2 bc 5c 81 b5 3d 47 70 b8 bd
       0.03298791 -0.02768882 0.08862564 -0.0900579
0001f0 3b de ed bc 5a 3d 09 bd 05 5e 5c 3c f5 65 91 bc
       -0.029036632 -0.033505775 0.01345015 -0.017748812
000200 9c ab 2c bd 2e ef 0d bd e3 0d a9 bd 2f d9 87 3d
       -0.042155847 -0.034651928 -0.08254602 0.06633221
000210 c4 33 dd 3d 81 b3 b1 3c 72 61 ee 3c a7 1c 97 3d
       0.10800889 0.02169204 0.0290992 0.07378512
000220 d8 d1 5a bd 57 75 87 3d 55 8c 8a 3d f2 ba b1 bc
       -0.05342278 0.06614178 0.067650475 -0.021695588
000230 c7 d5 43 bd 33 2c 88 3d 97 9d 22 3d 1f dc b2 3d
       -0.047811296 0.06649055 0.03970107 0.08733391
000240 19 2d 81 3d 27 f2 34 bd e9 04 85 bd 7f e7 d2 3d
       0.0630743 -0.044176247 -0.06495077 0.102980606
000250 19 d6 84 bd 51 22 ab bd 12 0f 24 3b 91 d8 4f 3d
       -0.064861484 -0.08356155 0.0025033397 0.050743643
000260 0d 14 a4 bd 34 bb 45 bd 8a 8b 12 3d c4 b7 e3 3d
       -0.08011637 -0.048274234 0.035777606 0.11119035
000270 43 4a 13 bd d5 e4 2c bd d6 6a ba 3b 87 8f 7b bd
       -0.035959493 -0.04221042 0.0056890054 -0.061416175
000280 13 8a 94 bc 5a e4 6a bd 0a cf 89 3b 8b 0e 9d 3d
       -0.018132245 -0.05734668 0.004205589 0.076687895
000290 81 d6 95 bc 64 08 94 3d ff 59 c8 3b e4 da 40 bd
       -0.01829076 0.07228163 0.006114244 -0.04708375
0002a0 ec 63 70 bc b7 fd f1 3d 1f e7 1f 3d 4c 6d ea 3a
       -0.014672261 0.118159704 0.039038774 0.0017885356
0002b0 dc 8a 38 bd 56 0f a2 3d 83 d1 ee bd 85 f3 cd bc
       -0.0450543 0.07913081 -0.11661055 -0.025140533
0002c0 6b 9e 90 bc 47 46 97 bd 59 34 8b 3d 1d 19 cb 3c
       -0.017653665 -0.07386451 0.06797094 0.024792248
0002d0 b6 9f 75 bd b5 0d b4 3c 62 4c 9b 3c 47 25 7b 3d
       -0.059966765 0.021979192 0.01895732 0.061314847
0002e0 c2 83 74 bb 1b 4c 32 3d 7e db b4 3d f1 fd 88 bc
       -0.003730998 0.04352961 0.08830927 -0.016722651
0002f0 fd 63 d7 3c 5a 37 d1 3d 8e a8 cd bc 27 cb a2 bc
       0.026292795 0.102156356 -0.025104787 -0.019872261
000300 c9 8f 85 bd 2a 18 eb 3c de 57 25 3d 63 bb c6 bd
       -0.065215655 0.028698046 0.040367 -0.0970371
000310 19 91 1b 3c 9e 22 a6 3c fc c8 6a bd b2 48 c3 bc
       0.009495043 0.020280179 -0.05732058 -0.023838375
000320 5a 82 fb bc 21 4a a4 3c 89 b5 b8 bd 97 dc b7 bd
       -0.030701805 0.020054879 -0.09019 -0.08977621
000330 03 bd b6 3d 6d a6 65 3d fe 05 f7 3c 75 88 ed bc
       0.0892277 0.05606692 0.030154224 -0.028995732
000340 19 db 36 3d 2e 8f 5b 3d a8 30 d1 3d 47 4f 80 bc
       0.04464254 0.053603344 0.102143586 -0.015662802
000350 b0 16 13 3d 40 64 27 bd 4e be 64 3d a8 94 35 bd
       0.03591031 -0.04086709 0.05584555 -0.044331223
000360 2b 2f 20 3c 7f 7a 0e 3b 6a ad 98 bc ae 45 f4 3d
       0.009776871 0.0021740494 -0.018637378 0.11927353
000370 4c 0c 2e 3c 5e 06 9e 3d 2e 85 eb 3c f9 56 5a bd
       0.010623049 0.07716058 0.028750028 -0.0533056
000380 45 1e e0 bd 08 5f a4 bd 6d 9e 01 bd 0e e0 7a 3d
       -0.109432735 -0.08025938 -0.031645227 0.06124883
000390 45 c0 55 3d 25 5a dd 3c b2 c8 4e 3d bb ad b7 39
       0.052185316 0.027020523 0.050484367 0.0003503392
0003a0 19 d1 9d bd 2e 6b 1c 3d 1f e5 0e bd 0d 97 53 bd
       -0.07705898 0.038188152 -0.034886476 -0.051657725
0003b0 e5 1e e7 3d 0b 90 46 bc ab 3f a4 3c 63 7a 9e 3c
       0.112851895 -0.012119303 0.02004989 0.019345468
0003c0 16 cf 9c bd 5f 56 7f bd 51 7d 1a bd 6a 5a 85 bb
       -0.07656686 -0.06233823 -0.037717167 -0.004069616
0003d0 f1 10 d6 3b d3 09 5b bc 52 8a 53 3c 22 2d 6c bd
       0.0065327813 -0.0133690415 0.012911396 -0.05766023
0003e0 fb d1 5d 3d d5 43 14 3c 3f 77 a2 3d 31 1f 61 3c
       0.05415533 0.009049376 0.07932901 0.013740347
0003f0 58 df dc 3c 45 bb a0 3c 0c 98 9e 3d 78 03 03 be
       0.026961967 0.019620547 0.077438444 -0.12794292

fc2.bias f4 [120]
000000 87 3c 00 3d fb 2e 4a bd 0d 6b 01 bd 84 94 7f bd
       0.031307723 -0.04936121 -0.031596232 -0.062397495
000010 84 9c c6 3c 0a f0 a9 3c 61 b1 97 3d 13 2c 7d bd
       0.024244554 0.020744342 0.07406879 -0.06180961
000020 f9 a4 d9 3b 41 75 c9 bb a8 5a 3b 3d e6 79 bc 3d
       0.0066419807 -0.006148011 0.045740753 0.09202938
000030 50 4c 80 bd e3 aa 4c bd a3 95 82 bd ed fa 05 bd
       -0.062645555 -0.049967658 -0.06376197 -0.032710005
000040 7c fb ca bb 69 b5 a3 3c 24 40 8c 3d ef 7e 5f 3d
       -0.00619453 0.019983964 0.06848171 0.054564413
000050 27 cd b3 3b 97 40 bd 3d 5d f5 53 bd 91 56 8c 3c
       0.0054871025 0.09240835 -0.05174767 0.017131122
000060 34 6d 42 bd 68 c7 87 3d 77 c1 a5 3d cf f4 7c bc
       -0.047467425 0.066298306 0.08093541 -0.015439226
000070 e5 fa 1f bb 01 2b e0 bc e6 88 a9 bd f2 03 54 bd
       -0.002441102 -0.027364256 -0.082780644 -0.051761575
000080 1b c3 56 bd a3 9e c1 bc 86 a2 4f 3c 2c ed 15 bd
       -0.05243216 -0.023635214 0.012673026 -0.036603138
000090 a0 3c 71 bb 70 24 3a bd b9 89 8e 3b c2 9d 88 bd
       -0.0036809817 -0.045444906 0.004349914 -0.06670715
0000a0 dd e2 80 3c 73 82 07 bd 66 c4 26 bd 13 cc b2 bd
       0.015733177 -0.03308339 -0.040714644 -0.0873033
0000b0 59 91 6a 3d 97 9e f3 3c 99 29 56 bd 10 d9 8a 3c
       0.05726752 0.029738707 -0.052285764 0.016949207
0000c0 6c ce 50 bd a0 82 89 bd e3 f9 3e bd cc be e6 bc
       -0.05097811 -0.06714368 -0.04662503 -0.02816715
0000d0 51 96 6c 3d 7a c5 94 3c 38 64 3b 3d d0 b4 35 3d
       0.05776054 0.01816057 0.045749873 0.04436189
0000e0 37 6e a4 3d 40 4f 81 3d b7 bc 3c bd 41 4d e6 3c
       0.08028834 0.06313944 -0.04607841 0.02811301
0000f0 aa 35 98 3d f5 c7 4a 3d 21 ea 8c 3d fb 89 27 3d
       0.074321106 0.0495071 0.06880594 0.040903073
000100 88 94 8e 3d bb 7b a5 3d 1f 28 29 bc 19 e5 91 bd
       0.06961924 0.0808024 -0.010324507 -0.07123775
000110 6a a4 b6 3d 96 48 8d bc 70 9f c1 3d c8 99 8e 3c
       0.08918078 -0.017246526 0.094542384 0.017407313
000120 47 b5 58 3d 17 0a 90 3c a9 f3 81 bd 76 f8 9c bd
       0.052907255 0.017582936 -0.063453026 -0.07664578
000130 c3 15 14 bc 36 41 18 3d b2 21 4d 3d 07 f7 7e 3d
       -0.0090383915 0.037171565 0.050080962 0.062247302
000140 98 7a db bc 18 35 07 bd e3 63 66 3d e9 8c 4d 3c
       -0.026791856 -0.03300962 0.056247603 0.012545803
000150 03 8d 31 bb 51 57 af bd 84 d4 61 bd c3 f2 d2 3c
       -0.0027092106 -0.08561576 -0.05513431 0.025750523
000160 02 84 6f 3d 11 c2 d1 bc 6f 2c 2d bc 40 b5 ae 3d
       0.0584755 -0.025605233 -0.010569676 0.085306644
000170 d5 72 b3 3d 5e 85 ac bc cf a1 1f bc ff 32 1d bb
       0.08762137 -0.021059688 -0.009743168 -0.0023986695
000180 b6 18 0a 3d b1 d5 b2 3c 4b 14 82 bc 83 62 18 bc
       0.033714972 0.021830412 -0.015878817 -0.009300831
000190 6b 21 8b bd 1d eb 6d bd a7 71 69 3d 28 c4 8c bd
       -0.06793483 -0.05808555 0.056993153 -0.06873351
0001a0 d5 48 12 3d 0c fe df 3b be b6 27 3c 90 16 80 3d
       0.03571399 0.0068357047 0.01023644 0.062543035
0001b0 62 95 b2 bb 36 5c 40 3c 9d 08 80 3d 46 f0 71 3d
       -0.0054499367 0.011740735 0.06251643 0.059067033
0001c0 26 30 bc 3d 16 70 58 3d 87 e8 56 3d 91 3c aa 3c
       0.09188871 0.05284127 0.05246785 0.020780833
0001d0 6f 01 be 3d d0 a2 89 bd 3a 23 52 3d 1c 90 a5 3d
       0.09277617 -0.06720507 0.051303126 0.08084127

layer_norm.weight f4 [128]
000000 33 bd 82 3f e2 2d 80 3f 33 6d 7b 3f 45 ed 81 3f
       1.0213989 1.0014002 0.982135 1.0150534
000010 38 0a 80 3f 34 65 79 3f 50 bc 83 3f 09 78 80 3f
       1.0003119 0.9742005 1.0291843 1.0036632
000020 55 1a 7c 3f 98 27 80 3f e6 4f 82 3f b3 9d 7d 3f
       0.9847768 1.0012083 1.0180633 0.99068755
000030 f7 23 80 3f 88 4b 7f 3f 54 33 7b 3f ee ae 7c 3f
       1.0010976 0.99724627 0.98125196 0.9870442
000040 01 5d 87 3f 2d 57 82 3f e3 75 7a 3f 7c dc 7c 3f
       1.0575258 1.0182854 0.9783613 0.9877393
000050 2c 31 83 3f 26 af 87 3f 9c 75 7a 3f 77 58 79 3f
       1.0249381 1.0600326 0.9783571 0.9740061
000060 54 34 80 3f 8b 4a 82 3f 60 1c 85 3f de 56 75 3f
       1.0015969 1.0178999 1.0399284 0.95835674
000070 14 e7 7b 3f c2 3a 7b 3f 9a e8 76 3f 9c 51 80 3f
       0.9839947 0.9813653 0.9644867 1.0024905
000080 1c 76 84 3f a2 55 7a 3f 06 1e 78 3f 43 1c 78 3f
       1.0348544 0.97786915 0.9692081 0.96918124
000090 6b 31 7d 3f 48 b8 83 3f d3 36 81 3f ec e2 7c 3f
       0.9890353 1.0290613 1.0094856 0.98783755
0000a0 eb 85 7f 3f ea fb 82 3f af a1 7f 3f 67 5d 84 3f
       0.9981372 1.0233128 0.99856085 1.0341004
0000b0 67 32 7e 3f ee 51 80 3f 13 3f 82 3f 6a 69 79 3f
       0.9929566 1.0025003 1.0175499 0.97426474
0000c0 e4 6b 79 3f 5e f3 86 3f ab b5 81 3f f2 68 7d 3f
       0.97430253 1.054302 1.0133566 0.9898826
0000d0 d9 21 82 3f 12 cc 7d 3f f4 5d 85 3f 3f 8d 80 3f
       1.016658 0.9913951 1.0419297 1.0043105
0000e0 9c 3d 7f 3f da 90 81 3f 4b fe 76 3f 59 4e 77 3f
       0.99703383 1.012233 0.9648177 0.96603924
0000f0 5c 8a 83 3f 9c 29 80 3f 0a 01 7d 3f 46 f3 86 3f
       1.0276599 1.0012698 0.9882971 1.0542991
000100 39 20 84 3f af f5 80 3f af e1 81 3f 19 45 88 3f
       1.0322334 1.0074977 1.0146998 1.0646087
000110 79 b9 78 3f f2 ff 85 3f 1c 9d 76 3f 35 62 79 3f
       0.9715801 1.0468733 0.9633348 0.9741548
000120 08 c0 79 3f 9c 76 7a 3f e8 aa 7f 3f 6e 98 82 3f
       0.9755864 0.97837234 0.9987016 1.0202768
000130 d4 c4 83 3f 67 56 77 3f bf e3 81 3f 5a 87 7a 3f
       1.0294442 0.96616215 1.0147628 0.9786278
000140 f4 84 82 3f 2c 54 82 3f c3 96 80 3f 87 87 85 3f
       1.0196824 1.0181937 1.0046009 1.0431985
000150 08 e0 8a 3f 09 5e 84 3f 67 8f 7e 3f b5 1e 82 3f
       1.0849619 1.0341197 0.99437565 1.0165621
000160 a1 c2 79 3f dc b7 76 3f 80 27 82 3f 02 c6 80 3f
       0.97562605 0.963743 1.0168304 1.0060427
000170 f8 5d 82 3f cc 84 7c 3f 25 3f 80 3f f8 5c 7a 3f
       1.0184927 0.9864013 1.001927 0.9779811
000180 e5 1f 7e 3f 50 c2 80 3f 66 22 77 3f 10 c3 80 3f
       0.9926742 1.00593 0.9653686 1.0059528
000190 38 ee 85 3f ee 38 80 3f dc 29 79 3f 35 96 79 3f
       1.0463324 1.0017374 0.973295 0.9749482
0001a0 26 8e 7f 3f 5a fd 82 3f 95 a7 82 3f d6 7a 82 3f
       0.99826276 1.0233567 1.0207392 1.0193737
0001b0 6a 8b 80 3f 13 be 83 3f 79 cd 85 3f 3b af 84 3f
       1.0042546 1.0292381 1.045333 1.0365976
0001c0 0d 59 7f 3f 18 3f 7b 3f ac 37 81 3f 9e 05 89 3f
       0.99745256 0.9814315 1.0095115 1.0704839
0001d0 ea e7 81 3f 00 27 86 3f d6 cb 83 3f 79 a6 7c 3f
       1.01489 1.0480652 1.0296581 0.9869152
0001e0 c9 5d 79 3f 70 c3 81 3f 9e da 85 3f 1d 5a 85 3f
       0.9740873 1.0137768 1.0457342 1.0418125
0001f0 f0 80 80 3f 91 32 81 3f bb 81 82 3f 05 3b 83 3f
       1.0039349 1.0093557 1.0195841 1.0252386

layer_norm.bias f4 [128]
000000 f5 d3 11 bd 9c 78 0a bd 53 d5 0f bd 06 a1 0b bc
       -0.03560253 -0.03380643 -0.03511555 -0.008522278
000010 e2 88 13 bd ac b6 f3 bc fa e5 eb bc ab fd 20 bd
       -0.036019213 -0.02975019 -0.028796185 -0.039304417
000020 cb 5b 3e bb 5d 82 ae bc f5 df 2b bc a2 5f 00 bd
       -0.0029046412 -0.021302396 -0.010490407 -0.031341203
000030 08 dc 8c bc c5 48 d1 bc ac a3 28 bd 13 45 31 bd
       -0.017194763 -0.025547395 -0.041171715 -0.043278765
000040 8e c4 4b bc e9 fc e6 bc 78 5c 28 bd f7 2f 22 bd
       -0.012436999 -0.028196769 -0.04110381 -0.039596524
000050 42 bb ba bc 53 8d 01 bd d1 de 45 bd 31 24 3b bd
       -0.02279437 -0.031628918 -0.048308197 -0.04568881
000060 90 40 19 bd 81 90 fc bc 49 f4 38 bc 6b 61 21 bd
       -0.037415087 -0.030830624 -0.011288711 -0.039399546
000070 8b 92 15 bd f9 da 02 bd 26 bb de bc 8f 52 0b bd
       -0.036516707 -0.03194711 -0.027188849 -0.03401428
000080 92 38 02 bd f3 f6 24 bd 2a 43 f3 bc 3b 7b 61 bd
       -0.03179223 -0.04027457 -0.029695112 -0.055049162
000090 04 ed ed bc 8b 1f 7a bc fb 60 52 bc 87 e4 d7 bc
       -0.029043682 -0.0152663095 -0.012840505 -0.026354088
0000a0 69 ee 23 bd 07 40 97 bc f5 d8 e5 bc 25 56 a2 bc
       -0.040022288 -0.018463148 -0.028057555 -0.019816468
0000b0 a8 24 4c bc bd d8 e5 bc 94 ee 03 bd b6 2a f9 bc
       -0.012459911 -0.02805745 -0.032209948 -0.030415874
0000c0 a2 7f 00 bd ce ab 16 bd 06 a4 4d bc eb aa 0c bd
       -0.03137172 -0.03678494 -0.012551313 -0.034342688
0000d0 ef 05 1a bd b6 9f 02 bd ad 17 9e bc 78 0f b2 bc
       -0.037603315 -0.031890593 -0.019298399 -0.021735892
0000e0 87 55 4e bd 53 95 dc bc b0 c9 2c bd 41 86 3c bd
       -0.050374534 -0.026926672 -0.04218453 -0.046026472
0000f0 4b 71 d8 bc 5a bf b7 bc 51 b0 d9 bc a6 b8 55 bc
       -0.02642121 -0.02243011 -0.026573332 -0.013044512
000100 03 4c ad bc ce 01 2f bd 09 f0 b5 bc 6f 04 a6 bc
       -0.02115441 -0.04272633 -0.022209184 -0.020265786
000110 e0 03 ea bc cf 71 07 bd 75 6b 36 bd cc a8 fc bc
       -0.0285663 -0.03306752 -0.044536073 -0.030842207
000120 02 80 55 bd 2b 35 12 bd c4 5a e0 bc 14 16 03 bd
       -0.05212403 -0.035695236 -0.02738703 -0.032003477
000130 54 53 eb bc 5d 9b 2f bd 6e a3 ea bc ec ba 9a bc
       -0.028726257 -0.042872775 -0.028642382 -0.01888796
000140 93 09 c6 bc a9 2c fa bc 8a 98 d4 bc 9e 55 05 bd
       -0.024174487 -0.030538874 -0.025951643 -0.032552354
000150 46 13 c4 bc 7a ab b0 bc 0e f9 02 bd 42 ab 5d bc
       -0.023934972 -0.021566141 -0.0319758 -0.013529601
000160 ec c3 03 bd dd f4 20 bd fb 68 3a bd 36 0e 21 bd
       -0.032169268 -0.03929602 -0.045510273 -0.039320193
000170 fa 95 dc bc 0d bf 43 bd c0 46 d6 bc 50 22 b0 bc
       -0.026926983 -0.047789622 -0.026156783 -0.021500736
000180 1a f4 e8 bc d9 d8 56 bc 79 31 eb bc dc 08 b8 bc
       -0.02843671 -0.013113224 -0.028710114 -0.022465162
000190 19 14 f9 bb bf ea dc bc 06 12 e5 bc 43 8e 07 bd
       -0.007601273 -0.026967404 -0.027962696 -0.033094656
0001a0 ff 19 48 bd 3c 3b a5 bc 44 0c 2b bd 09 a8 a6 bc
       -0.048852917 -0.020169847 -0.041759744 -0.020343797
0001b0 20 4a 10 bd 20 86 3c bd a4 70 bd bc 05 f2 cd bc
       -0.03522694 -0.04602635 -0.023125 -0.025139818
0001c0 ea 89 10 bd 28 33 06 bd 24 28 0f bd b7 79 c2 bc
       -0.035287775 -0.03276363 -0.03495039 -0.023739679
0001d0 dd 62 e8 bc 4d c9 e2 bc 0c f6 90 bc a2 33 05 bd
       -0.028367454 -0.027683878 -0.01769545 -0.032519944
0001e0 96 8b 1f bd 5a ed 0b bd 8b 09 7e bc 90 8a ff bc
       -0.03895148 -0.034161903 -0.015505205 -0.031194001
0001f0 03 7f a1 bc e8 47 d0 bc f4 64 04 bd 61 27 e2 bc
       -0.019713884 -0.025424913 -0.03232284 -0.027606668
