trained_models/Emerson2017_vgene_weight/best_model.pth (torch, 126807 bytes, 6 tensors)

fc1.0.weight f4 [128, 120]
000000 89 67 a2 bc 2a 92 c0 3d 27 da 08 3c ed a9 7e 3d
       -0.01982476 0.094028786 0.008352793 0.062173773
000010 f4 b8 9a 3c 66 19 c6 3d 3c 2c 5c bb aa fd 8c 3c
       0.01888702 0.09672813 -0.0033595702 0.0172108
000020 66 13 19 bc 30 7d 52 3d 3b de db 3c bc 92 fc 3d
       -0.009343004 0.05138892 0.026839366 0.12332675
000030 16 8b 87 bd 29 de d7 3d fa 7c 08 3d 3a f3 59 bd
       -0.066183254 0.105404206 0.033322312 -0.053210475
000040 fe 0b 12 3d 57 5e 9d 3d 8b 93 4a 3d 5b 7f 3a 3d
       0.035655968 0.076840095 0.049457114 0.045531612
000050 eb 35 fc bc ed d4 d1 3c fa 1e bb 3c 75 59 f0 3d
       -0.030787429 0.025614226 0.02284192 0.117358126
000060 35 02 82 bc ba fa 02 3d 11 18 36 bd f5 19 87 bd
       -0.015870193 0.031977393 -0.044456545 -0.06596748
000070 0e f7 ad 3d 18 e0 0b 3d 51 d6 5c bc df eb ac bc
       0.084943876 0.03414926 -0.013478831 -0.021108566
000080 70 b1 0d bd db 47 8f 3d 4e df ef 3c 9f cb 8d bd
       -0.034593046 0.06996127 0.029281285 -0.06923603
000090 de 2b 5b 3d 48 e9 22 3e cb be 7d 3c ce 82 38 3d
       0.053508632 0.15909302 0.015487383 0.04504662
0000a0 1e e9 25 3d 2a 83 c3 3d b3 3c d1 3d 9c 57 db bd
       0.04050552 0.09546502 0.102166556 -0.107100695
0000b0 69 e6 1a bd 54 a4 2c bd cd b2 d4 bd 26 58 3e 3d
       -0.037817392 -0.042148903 -0.10385666 0.046470784
0000c0 2c c4 cc bc 82 9f 3e 3c cf f4 fb bc 7e e8 b2 3c
       -0.024995886 0.011634709 -0.030756382 0.021839377
0000d0 41 5b df 3c 21 7d f2 3d 5e 26 1d 3c 63 d5 a1 3c
       0.027265193 0.11840273 0.009591667 0.019755071
0000e0 48 5b c7 bc f6 6b 3a 3d 7c 3f 7b 3c 1b cc 7f bd
       -0.024335518 0.045513116 0.01533496 -0.06245051
0000f0 9a f0 60 3d 98 95 8d bd fd b7 0f bd fd 88 ae 3c
       0.054916956 -0.06913298 -0.035087574 0.021305555
000100 33 fc fd 3c ec 46 1d bc d0 18 0e 3d 9f 5b 84 bd
       0.031004047 -0.009599429 0.03469163 -0.06462788
000110 23 a6 eb bc 84 a9 eb 3c 26 76 a2 bb db de 50 3d
       -0.028765744 0.028767355 -0.004957932 0.05099378
000120 00 5a 1a bd d6 f2 07 3d 03 34 38 3d 35 39 ce bd
       -0.037683487 0.03319057 0.044971477 -0.10069505
000130 b3 39 a8 bd 4c b7 a6 bd 47 16 93 bd 33 e1 48 3d
       -0.0821413 -0.0814043 -0.071819834 0.04904289
000140 df 44 8f 3d 3c ec 12 3d 7b dd 6a bb 30 ee 5d bc
       0.06995558 0.035869822 -0.003583758 -0.013545558
000150 94 51 d0 ba 63 29 1e 3d 60 c6 e4 bc 43 fc 35 3c
       -0.0015893453 0.03861369 -0.027926624 0.011107507
000160 1b 9a a5 3d fe f6 0b 3d 78 98 95 bd 5f c5 9f bc
       0.08086034 0.034171097 -0.07304472 -0.019503294
000170 fe 2b ba 3c 90 39 c4 bd 73 7c 64 3c 6f a6 04 bd
       0.022726055 -0.09581292 0.013945687 -0.032385286
000180 1f 89 91 bc f4 c8 0c bd 51 11 6a 3d 0c 99 be 3d
       -0.01776558 -0.03437133 0.05714542 0.09306535
000190 47 0f 1b bd 8a 55 b9 3d bc 06 0e bd e4 4e 4f bd
       -0.037856366 0.090495184 -0.03467439 -0.050612345
0001a0 73 d9 ea bd 66 6b 8b 3d 59 a8 02 be 08 81 a5 3d
       -0.114672564 0.06807594 -0.12759532 0.080812514
0001b0 90 f4 cb bb 13 6a aa bd 21 60 b1 3c d2 58 4a bd
       -0.0062242225 -0.08321013 0.021652283 -0.049401112
0001c0 57 28 ea bd 0e d0 d6 3c 19 4f 0d 3c 04 11 6f bc
       -0.114334755 0.026222255 0.008624815 -0.014591459
0001d0 14 72 a0 bc 60 7d e0 bc 97 fe 1f 3d 1b 6d 8b 3d
       -0.019585647 -0.027403533 0.039061155 0.068079196
0001e0 c0 cc 35 3b c8 be 5a bd 5f 3f b3 bd e3 d1 f5 bd
       0.0027740449 -0.0534046 -0.087523215 -0.12002923
0001f0 78 42 f1 3c bb 22 5d bd 28 d8 05 be ff 12 f7 3c
       0.02945064 -0.0539882 -0.13070738 0.030160425
000200 7c 9d 74 3c 18 a4 54 3d fa 53 49 bd b8 47 76 3c
       0.014930125 0.051914304 -0.049152352 0.0150317475
000210 b9 4b c0 3c e2 f9 ce 3b 6e 4a 40 bc 57 b7 8c 3c
       0.023473607 0.0063164094 -0.011736495 0.017177267
000220 b6 75 5d 3c ed 9e 06 bd c9 ec ac 3b 42 4d 28 bd
       0.013516834 -0.032866407 0.0052772504 -0.041089304
000230 5f 10 9a 3d 5f d2 57 3c a1 eb c0 3d 3c 1f c6 bd
       0.07522654 0.013172715 0.09419943 -0.09673926
000240 86 5e 85 bd 02 a3 da bb 3f eb ae 3d 1d 13 03 bd
       -0.065121695 -0.006672264 0.085409634 -0.03200065
000250 04 9e 89 bd 43 a0 9b 3d 41 f4 d6 bd ea 47 60 3d
       -0.06719592 0.07598927 -0.104958065 0.054756083
000260 82 f1 01 bd 36 3e 18 bc 87 28 4f 3d f6 28 33 bd
       -0.03172446 -0.009292176 0.05057576 -0.043740235
000270 36 60 bd 3c 55 21 e6 3c 69 05 10 bd 4d 35 e6 bd
       0.023117166 0.028092066 -0.03516141 -0.11240635
000280 33 a4 f5 ba 0e e8 5b bd 84 a2 ac bd 3f 2c 35 3d
       -0.0018740952 -0.0536881 -0.08429435 0.04423165
000290 34 7a 33 3d 6b 2b 90 3d df eb 67 3c 5e bf d3 bc
       0.043817714 0.07039531 0.014155357 -0.025848087
0002a0 17 50 9a 3d 38 a7 8c 3a 67 2b 6c bd 9e da bb bc
       0.07534807 0.0010730987 -0.05765858 -0.022931393
0002b0 59 81 1a 3d 71 af 46 3d 4f e5 3a bd be b3 9c 3d
       0.03772101 0.048507158 -0.045628842 0.076514706
0002c0 82 30 8e bd 38 78 c1 3c 83 ec ea 3c 06 52 a6 3d
       -0.06942846 0.023616895 0.02867723 0.081211135
0002d0 9e 90 cc 3c 54 48 99 b8 55 da 60 3c 22 d4 30 3d
       0.024971303 -7.309081e-05 0.013723929 0.043171056
0002e0 d5 91 bc bd 02 d1 33 3d 78 7e 1f bd a4 a1 4c 3d
       -0.09207503 0.043900497 -0.03893897 0.04995884
0002f0 e3 c5 ed bc 8d 8e 78 bb 74 d8 ab bc cc 46 1d 3d
       -0.029025024 -0.0037926764 -0.020977236 0.038397595
000300 14 ba 9a 3d 17 2b 98 bd fc 01 a5 bd d2 ae b1 3d
       0.07555023 -0.07430094 -0.08057019 0.086759225
000310 c1 de 3d bd 5a a9 a5 bc 13 8c 43 3d 80 ae ce 3c
       -0.046355013 -0.020222355 0.047741007 0.025229692
000320 55 f4 3e 3c d4 dd 88 bd e7 dd 26 bd c5 2d 25 3d
       0.011654933 -0.06682935 -0.040738966 0.040326852
000330 3b c1 e7 bc 23 3d 5e 3d 77 c9 7d 3c 14 d8 55 bd
       -0.028290382 0.054257523 0.0154899275 -0.05220802
000340 a5 6e ac 3d 23 74 97 bd c5 89 78 3d 64 67 7b 3d
       0.08419541 -0.07395198 0.060678262 0.061377898
000350 b3 f6 ae 3d 12 43 6f bd 47 c3 45 bd 91 5b 93 3d
       0.08543148 -0.058413573 -0.048281934 0.07195199
000360 29 ae 40 3c 28 18 3f bc 2f 73 b5 3d fa 80 43 bd
       0.011760273 -0.011663474 0.0885986 -0.047730424
000370 2e f9 c2 3d 97 82 70 bd fb 04 09 bc ba b7 bc bd
       0.095201835 -0.05871829 -0.008363004 -0.092147306
000380 6a 8a ab bb 04 de 76 bd e4 8d 09 3d e6 a5 d2 3a
       -0.005235006 -0.060270324 0.033582583 0.001607117
000390 2a 8b ad 3d 48 6b e0 3c 8f c0 c4 3c a3 9a 61 3d
       0.08473809 0.027394906 0.0240176 0.055079114
0003a0 f2 02 75 3d af 4d c2 3d ef 28 8e 3d 60 e7 42 bd
       0.059817262 0.09487473 0.06941401 -0.047583938
0003b0 dc 70 ea bc af 55 62 bd bf a9 65 ba a4 b7 8c 3c
       -0.028618269 -0.055257495 -0.0008760951 0.01717741
0003c0 38 f8 a1 3c fe 50 97 3c 2b 40 d8 bd a5 30 89 bd
       0.01977168 0.018471237 -0.10559114 -0.06698731
0003d0 74 9f 99 3d a1 e4 0f 3e 63 c3 84 3d 90 d1 9a 3d
       0.075011164 0.14052059 0.064825796 0.07559502
0003e0 31 8a 9e 3c 4f be 99 bd 5b aa 29 bc 5d 95 15 bb
       0.019353004 -0.075070016 -0.010355557 -0.0022824623
0003f0 99 4a 11 3e c7 22 09 be 31 c0 a0 3b a1 88 97 bd
       0.14188613 -0.13392173 0.0049057235 -0.07399107

fc1.0.bias f4 [128]
000000 29 e0 ea bd ed 0e 0f 3d c5 b9 79 bc 05 0c 68 bd
       -0.114685364 0.034926344 -0.015242045 -0.056652088
000010 43 b8 d2 bd 2a 51 ee bc 42 92 2b bd 31 65 1c 3d
       -0.102890514 -0.029091436 -0.04188753 0.03818244
000020 5a 9c 3d bd aa fa 60 3d 6e d9 bb 3c c3 60 e9 bb
       -0.046291687 0.054926552 0.022930827 -0.0071221306
000030 7a fc ed bb f5 8a b9 bd 7e 59 5f bd af 69 dd bc
       -0.0072627636 -0.09059707 -0.054528706 -0.027027933
000040 a5 fd 0a 3b 09 56 8b 3d 89 a2 5c 3c 0c 3c 37 3c
       0.0021208313 0.06803519 0.013466486 0.01118375
000050 61 07 3b bc 4b e4 9e bd 11 c2 b6 bc 55 c1 35 3d
       -0.0114153335 -0.07758387 -0.022309335 0.04437383
000060 dd 45 b3 3d d3 86 3c 3d 25 ec 9b 3d 4d 3c 83 bd
       0.0875356 0.046027016 0.076134 -0.06407986
000070 ea 3f a6 3c c6 2f 43 bd 8c fe 22 3d 81 81 38 3d
       0.020294148 -0.047652982 0.039793536 0.04504538
000080 1d 7f bd bc 41 61 89 3c b0 40 5f bd dc 2e 08 3d
       -0.023131901 0.016770007 -0.05450505 0.033247814
000090 49 92 9b bc 64 e6 b0 3d b8 22 6d bd 1c 9d 80 3c
       -0.018990653 0.086376935 -0.05789444 0.015699916
0000a0 2f d4 a4 3d ff f6 db bb 6a 3d 94 3c 4b 09 53 bd
       0.08048283 -0.006712794 0.01809569 -0.051522534
0000b0 21 fa 89 bd 7e 43 9a 3c 8e 43 d8 3c 64 39 fe 3c
       -0.067371614 0.01883101 0.0263994 0.031033225
0000c0 8b 1a 63 ba 46 3f 65 bd ed b7 b9 bd 13 3b 23 3d
       -0.0008663318 -0.055968545 -0.09068284 0.03985126
0000d0 e3 21 a3 3d e8 61 99 bb 06 ec 90 ba 7e 12 91 bd
       0.07965448 -0.004680861 -0.0011056669 -0.07083605
0000e0 70 44 2f 3d 53 72 5b bd d1 cc 0c bd 85 be cd 3c
       0.042789876 -0.053575825 -0.034375016 0.02511526
0000f0 48 91 b3 bc 35 62 b0 ba 1e 7f 65 bd 6a 06 40 bd
       -0.021919861 -0.0013457002 -0.05602943 -0.046881117
000100 95 e4 8d bd 9d 58 1d bc 7b c7 f2 bb 79 8f 54 bd
       -0.06928364 -0.009603647 -0.007409034 -0.05189464
000110 8d 91 4a bd 17 ee 91 bc d5 19 07 bc b5 99 ab 3d
       -0.049455214 -0.017813725 -0.008245905 0.08378927
000120 12 b2 67 bb f2 d9 af bd 1e 7e a4 bd 8b b7 b3 3c
       -0.003535394 -0.08586492 -0.080318674 0.021938106
000130 51 91 3c 3d 79 3a 67 3d e4 d7 0d bd e6 2c 4c bd
       0.046037022 0.05645225 -0.034629717 -0.049847506
000140 d0 3d 84 bd 19 75 40 3d 4a b8 87 3c e6 06 99 bd
       -0.06457102 0.046986673 0.016567368 -0.07472019
000150 ec 15 4d 3d 03 fc 60 bc 80 65 5e 3d 03 00 cb bc
       0.050069734 -0.013731959 0.054296017 -0.024780279
000160 05 c2 e4 bc 69 a9 af 3c fa 2f e3 3c 2a 8a 71 bc
       -0.027924547 0.021443086 0.027732838 -0.014742414
000170 5c fe 1f bd c3 40 e5 bc 3c 4c 30 bd 67 b0 f0 bc
       -0.039060935 -0.027984982 -0.043041453 -0.02938099
000180 16 b8 9f 3d 18 fd a4 3d db ce b6 bc 09 8d ae bd
       0.077987835 0.08056086 -0.022315433 -0.08522994
000190 a4 30 1e 3d 6c 69 b5 bc a4 da c2 bd ea 33 88 3c
       0.038620606 -0.022144996 -0.09514359 0.016626317
0001a0 7f 99 18 3d 52 e3 8d 3d fe b3 26 bd a9 dd c2 3d
       0.03725576 0.069281235 -0.040698998 0.095149346
0001b0 73 fc 59 3c c2 48 4d 3d 4a 2d ca bd b2 d4 e3 3c
       0.0133048175 0.050118215 -0.098719195 0.027811382
0001c0 12 a2 05 3c 19 45 70 3c 2f 36 6c bc 86 96 45 3c
       0.008156316 0.014664912 -0.014417215 0.012059813
0001d0 a5 06 9e bd ef 84 61 bd ab 69 fd 3b 33 81 93 bd
       -0.07716111 -0.055058416 0.007733544 -0.07202377
0001e0 f2 30 d7 bc 74 5e 9e bd 08 c4 9b 3a d2 5e 82 3b
       -0.026268456 -0.07732859 0.0011883983 0.0039785886
0001f0 52 3a d4 3d 67 fa 07 3c 83 52 a2 bd 92 20 8a bb
       0.10362686 0.008299447 -0.07925894 -0.0042153085

fc2.weight f4 [120, 128]
000000 39 b4 c5 bd 69 40 22 3d 76 80 b6 3d 01 cf 59 3d
       -0.09653515 0.039612208 0.08911221 0.05317593
000010 06 a0 33 bd 36 91 7e 3c 5a 30 be 3d 51 66 84 bd
       -0.043853782 0.015537551 0.09286566 -0.06464828
000020 be f8 a0 3c 0a 11 2f bd b1 cc bf bd 42 92 17 3d
       0.01964986 -0.04274086 -0.09365214 0.037004717
000030 24 5b 92 bc 18 4a 09 bc c9 a8 13 3e 7f a1 6f bd
       -0.017865725 -0.008379482 0.14419855 -0.058503624
000040 0f 84 af 3b 67 e2 36 bd 0d 61 41 bd d9 59 8b bc
       0.005356319 -0.044649508 -0.047211695 -0.017010616
000050 10 ad e6 bc 9f 9b a3 3d 7f 49 a2 3d 98 da 8d 3d
       -0.028158695 0.07988667 0.079241745 0.06926459
000060 9c 52 cf 3d 4f ba c4 3d 39 f1 2e bd be 58 83 3d
       0.10123178 0.09605848 -0.042710517 0.064134106
000070 cb aa 66 3d 0a 3a 18 3c fb 6a 88 bd be c9 c5 3d
       0.056315225 0.009291181 -0.0666103 0.0965762
000080 00 e1 c6 bc f2 96 86 3d b0 b7 61 bd f4 7b b3 bd
       -0.02427721 0.06571759 -0.05510682 -0.087638766
000090 8d 7e 31 bd 9e 3b e5 3b ea 7c 91 bd 45 41 1a 3c
       -0.04333358 0.0069956323 -0.071039036 0.0094149755
0000a0 56 ab 51 3d 15 db a2 bc 8a d6 52 3d 88 57 86 38
       0.05118879 -0.019879857 0.05147413 6.405922e-05
0000b0 fe 9f 48 bd 4a 98 b3 bd e3 20 9d bd 3f ac 1c bd
       -0.048980705 -0.08769281 -0.07672288 -0.038250204
0000c0 21 d9 9c 3d 89 55 37 3d c8 eb 22 bd 12 87 9c bd
       0.076586016 0.044759307 -0.03977564 -0.0764295
0000d0 35 3c 8a 3c 2e 65 a4 3c fc e5 93 3c 7a 90 60 3c
       0.016874412 0.020067777 0.018054001 0.013706321
0000e0 b1 8d ab 3d f1 6c 0b 3b 80 9c 99 bb 19 bf 51 bd
       0.08376635 0.002127465 -0.0046878457 -0.051207636
0000f0 23 1a 08 bd 08 63 b5 3c a9 44 49 bd ef 56 95 bd
       -0.03322805 0.022141948 -0.049137745 -0.07291972
000100 42 46 86 3c 6a b8 68 bd 24 c8 08 3d 04 43 65 3d
       0.016390923 -0.056816496 0.033393994 0.055972114
000110 d4 eb d0 3d e7 07 7b 3c b8 db e5 bc 22 1c 45 3d
       0.10201231 0.015321708 -0.028058872 0.048122533
000120 2a 30 0f bd 53 da b0 bc 8b d8 7d bd a4 5b be 3d
       -0.034958042 -0.02158848 -0.06197409 0.09294823
000130 f0 4d 96 bd b1 b5 9c bd 67 96 15 bc 60 95 2f 3d
       -0.07339084 -0.076518424 -0.009130097 0.042867064
000140 aa 01 61 b9 49 a0 36 3b 4d 21 23 3d 4f 5b 6a 3d
       -0.00021458292 0.0027866533 0.03982668 0.057215985
000150 73 3a 7a bd ea 51 90 3c e5 44 ba bc 86 31 99 3d
       -0.061090898 0.017617185 -0.02273793 0.07480149
000160 65 b4 55 3d 83 7b 23 3d 5a 74 8e bc 39 2e 08 3d
       0.05217399 0.03991271 -0.017389465 0.033247206
000170 49 d9 f0 3c 6c 90 a4 bd e8 90 de bd c8 54 0c 3e
       0.029400485 -0.08035359 -0.108674824 0.13704216
000180 fc fb 82 3d db b2 b1 bc d4 1f 00 bd 1b 1e c7 bd
       0.063957185 -0.02169173 -0.031280354 -0.09722539
000190 d5 77 4f bd 65 08 ab 3d 6c 36 83 bd e7 d4 8a bd
       -0.05065139 0.083512105 -0.064068645 -0.06778889
0001a0 04 51 ef bc 85 95 d6 3c e1 64 85 bd 14 be f4 bc
       -0.029213436 0.026194343 -0.06513382 -0.029875793
0001b0 6c 03 1b bd 01 06 9b bd 23 59 a2 3d f5 56 aa 3d
       -0.03784506 -0.075695045 0.07927158 0.08317367
0001c0 03 ae a4 bd 78 6d b4 bd c7 01 82 bd d9 70 ac bd
       -0.080410026 -0.08809942 -0.06347995 -0.084199615
0001d0 e1 eb 09 3d 74 2f 94 bd 5e cc aa 3d 5b e1 49 bd
       0.033672217 -0.072356135 0.08339761 -0.04928718
0001e0 ff f4 87 3d 0b 73 ca bc ca 4d ea 3c 88 18 fd 3c
       0.06638526 -0.02471306 0.028601546 0.030895486
0001f0 fd 14 4a bd 56 98 6d 3c e5 12 20 bc a6 97 21 3b
       -0.049336422 0.014501652 -0.00977013 0.002465704
000200 41 40 78 bd 0f fa 14 bd 64 d3 96 bc ad 30 69 3d
       -0.060608152 -0.036371287 -0.018411346 0.056931186
000210 64 5c a5 bb 57 03 ac bb c6 55 ea bb a4 b1 13 bd
       -0.005046414 -0.0052494216 -0.0071513383 -0.036058083
000220 63 e0 79 bd eb 3b 44 bd 39 63 b2 3d 36 b3 aa 3d
       -0.061005007 -0.047908705 0.087103315 0.08334963
000230 ea e2 75 3c 7f 3e 92 bb 8c 35 cb 3d 0a f4 7d 3c
       0.015007714 -0.0044630165 0.09922323 0.015500078
000240 da 85 c1 3d 32 63 8d bd e2 76 d8 bc 1d fb 4a ba
       0.09449358 -0.06903686 -0.026423875 -0.0007743107
000250 3d 4e ae bc 0e cb 39 bb a7 b3 9d bd 60 22 27 3d
       -0.021277541 -0.002834979 -0.077002816 0.040804267
000260 26 33 bb bd 9d f3 90 bd 0e 71 f3 3b e1 70 5c bd
       -0.09140615 -0.070777155 0.0074292487 -0.053818587
000270 0e c6 83 bc 24 2e d4 3d 2b 62 30 3c 83 8e 4a bd
       -0.01608565 0.10360363 0.010765593 -0.049452316
000280 3f 96 89 3d e5 63 97 bd c3 91 42 3c 95 b2 4f bc
       0.0671811 -0.073921 0.011875573 -0.012676855
000290 1e 7b 89 3d 98 83 a6 bd 14 fc e5 3d 8c 53 71 3d
       0.06712936 -0.08130568 0.11229721 0.058917567
0002a0 25 28 df bc de 28 7f 3d f1 3e af 3d 22 60 18 3d
       -0.027240822 0.062294833 0.08556927 0.037201054
0002b0 69 83 aa bc 39 9a 7b bd ba 76 8e bd 22 09 87 bd
       -0.020814614 -0.061426375 -0.06956239 -0.06593539
0002c0 89 e5 b4 3d 7d 8a db bc 2c ba b6 3d 24 a1 81 bd
       0.08832843 -0.026799435 0.08922228 -0.06329563
0002d0 5f 36 84 3d e1 ad 01 3c b4 bf d7 3d d4 25 84 3d
       0.06455683 0.007914991 0.10534611 0.06452528
0002e0 a7 aa 72 3d b1 e5 d4 3c 76 12 55 bd 9a c5 c5 bb
       0.059244778 0.025988432 -0.05201956 -0.006035519
0002f0 c7 f6 b3 bc 87 1d 43 3c bc 2e 91 bc 39 22 b6 3d
       -0.021968259 0.011908895 -0.01772248 0.08893246
000300 47 d5 ef 3d c6 0c e5 3d ca 49 05 3d bb 07 bf bc
       0.11710601 0.11184077 0.032541074 -0.023319116
000310 e7 28 85 3c 43 06 ce 3c d9 c5 cd 3c e4 1d 82 3c
       0.016254855 0.02514947 0.025118755 0.015883394
000320 f4 37 11 bd d1 c5 ad bd 3a 88 41 bd 67 5f cd bc
       -0.03545375 -0.08484996 -0.047249056 -0.025069905
000330 8b 17 b4 3c 8d 19 aa 3d 94 fd 4b bd 26 9b f1 bc
       0.021983882 0.08305655 -0.049802378 -0.029492926
000340 ed a3 0a 3d d3 f0 ee bc 9c 2a b1 bd 50 fb 7d bd
       0.033847738 -0.029167568 -0.08650705 -0.06200725
000350 d2 48 d1 3a d0 22 9c 3b 00 06 db bd e4 a1 e0 bc
       0.0015967137 0.004764892 -0.10694504 -0.027420945
000360 7b 91 c5 bb 49 74 47 3d c9 a0 d8 3a 3d 34 90 3c
       -0.0060293055 0.048694883 0.001652741 0.017603034
000370 57 07 c2 bd cb 91 a1 bb 8e 87 5a bd f6 8a 83 3d
       -0.09474056 -0.00493071 -0.05335193 0.06422989
000380 43 55 50 3c 17 85 6f 3d 0f c1 29 bd 97 1e a0 bd
       0.0127156405 0.058476534 -0.04144388 -0.078183345
000390 b0 84 9b 3c a9 c7 b6 3c 0f 41 ff 3b 27 e7 13 bd
       0.018984169 0.022312002 0.007789738 -0.036109116
0003a0 fb 09 16 3d 8e d6 e5 3c 50 6e 47 bc 19 07 97 3c
       0.036630612 0.02805641 -0.012172297 0.018436002
0003b0 4c db 3a bd 6e 31 b8 bc 02 2c c8 3d b4 20 ab bd
       -0.045619294 -0.022484507 0.09774019 -0.08355847
0003c0 64 ec 13 3d f0 66 ae 3b 5a 00 a7 3d cb 41 03 bb
       0.03611411 0.0053223297 0.08154364 -0.002002823
0003d0 e8 5d 0d bd 07 ac 41 3d ea 29 d8 3d 3d e3 77 3d
       -0.034513384 0.0472832 0.105548695 0.060519446
0003e0 19 af 95 3b 23 b6 66 bd 82 a1 e2 bc c4 2c 13 bd
       0.0045679924 -0.056326043 -0.027664904 -0.035931364
0003f0 b2 c0 85 3d 01 9d d5 3c a8 d8 a8 bd 5e 42 8a 3d
       0.06530894 0.026075842 -0.08244449 0.0675094

fc2.bias f4 [120]
000000 98 9c a0 bd fb 45 87 bd 3b 05 8f bd 5d b4 0e bd
       -0.07842368 -0.066051446 -0.069834195 -0.034839977
000010 d5 ad 93 bc 43 bb 25 bc 78 ed 9a bd bf 0a 6d bd
       -0.018027226 -0.010115447 -0.07564825 -0.057871576
000020 fd 21 b8 3c 8f 75 b8 3c f5 f6 ad 3d 43 5f b0 bc
       0.022477144 0.022516994 0.08494369 -0.0215298
000030 5a 7d 46 bd 52 a2 45 bd c5 2a ad 3d 0a 5f 68 3d
       -0.04845939 -0.048250504 0.08455423 0.05673126
000040 7b 09 ce 3c 14 01 24 bd 1a 94 99 bd 78 76 10 bd
       0.025151005 -0.04004009 -0.07498951 -0.03526923
000050 b7 68 88 3d 95 4c ae bd c5 07 36 3d 3d 1a 40 3c
       0.06660598 -0.085107006 0.044441003 0.011725006
000060 9f 93 8f 3d 25 60 2e bc d3 19 83 3c d0 b3 ab bc
       0.07010578 -0.01064304 0.016003525 -0.020959765
000070 c4 29 62 bd 8b 41 c5 bc f6 be b0 3c fd d0 20 bc
       -0.055215612 -0.024079105 0.021575432 -0.009815452
000080 3d 31 91 bd 84 80 4a bd fd d9 db bc 5c 5a a4 bd
       -0.070894696 -0.04943897 -0.026837343 -0.08025047
000090 d6 ed 99 3d 77 1a 2a bc 62 ba b4 3d 1c f5 a7 3c
       0.07516067 -0.010382286 0.08824612 0.02050262
0000a0 8a 2d ba 3c 51 2f 4e 3b 15 4e a5 3d cf e5 32 bc
       0.022726793 0.0031461308 0.080715336 -0.010919048
0000b0 71 cd 69 3d 3a 88 fc 3c 65 6d 16 3d ac eb 09 3d
       0.05708069 0.030826677 0.03672542 0.03367202
0000c0 48 11 07 bd 85 84 38 3d 77 74 94 bb 50 58 83 bd
       -0.032975465 0.045048255 -0.0045304853 -0.06413329
0000d0 20 26 57 bd bc cd 4c 3d 9d e2 1d bc 45 1e 1e bd
       -0.052526593 0.05000089 -0.009636548 -0.038603086
0000e0 1b f9 37 3d e8 a4 69 3d d9 3f 28 3c 0b 7d 59 bd
       0.0449153 0.057042032 0.010269129 -0.053097766
0000f0 cc 48 98 3d 39 89 22 bc 21 9c 99 3d 37 0f 61 3d
       0.0743576 -0.009920412 0.07500482 0.05494615
000100 3d d2 5f bd 50 bf a4 bd 92 a4 8c bd 3b d9 42 3d
       -0.05464386 -0.080443025 -0.06867327 0.04757045
000110 97 97 ea 3c 56 43 17 bd e8 26 b3 bd a8 fc 83 3d
       0.028636737 -0.03692945 -0.08747655 0.06444675
000120 30 30 a7 bc 97 fd ca bc d9 2c 49 3d bf 64 7d 3d
       -0.02040872 -0.024779124 0.049115036 0.061863657
000130 b7 92 41 3d 01 42 90 bd 83 b4 b0 bc 3c b1 4c bc
       0.04725906 -0.07043839 -0.02157045 -0.012493428
000140 75 8e 21 3d 44 cd 64 3d 06 d3 93 3d ab 2d 05 3d
       0.0394425 0.05585982 0.07217984 0.032514255
000150 ef 57 c1 3c f7 5c 1c 3c ee 71 81 3d b5 35 b9 3c
       0.0236015 0.009543649 0.063205585 0.022608617
000160 e4 cd fe 3c 34 ff 91 3d 6f a5 55 3d 2b 98 97 bc
       0.031104036 0.07128754 0.052159723 -0.018505177
000170 0b 0e 18 bc 03 9d 55 3d 06 30 a1 3d 8e 9e 23 3d
       -0.009280692 0.05215169 0.07870488 0.03994613
000180 ff 97 1e 3d ff 63 03 bd c4 fe 90 3c 3e 89 87 bc
       0.038719174 -0.032077786 0.017699607 -0.016544934
000190 e4 9b 8c 3c 35 f0 99 3d a8 f2 75 bd b1 7b 81 bd
       0.017164178 0.07516519 -0.06004587 -0.063224204
0001a0 e8 65 d8 bc 32 e3 a1 3d fd 96 cc 3a 50 65 d6 3c
       -0.02641578 0.07904662 0.0015608963 0.026171356
0001b0 22 db 5c 3d 51 e9 62 bd 68 5a c5 bc 48 8e f8 3c
       0.05391992 -0.05539829 -0.02409096 0.030341282
0001c0 46 89 76 3b 96 a1 f1 3c 1f 92 32 3c 61 b8 db bb
       0.0037618442 0.029495995 0.010899096 -0.0067053293
0001d0 c8 27 fa bc 32 f2 b5 bd 18 a4 0c 3d 73 d8 7b bd
       -0.030536547 -0.08884086 0.03433618 -0.06148572

layer_norm.weight f4 [128]
000000 02 7e 86 3f 7a 25 6e 3f ca b6 87 3f 78 30 77 3f
       1.0507205 0.93025935 1.0602658 0.9655833
000010 28 1c 8b 3f 99 3d 7f 3f 5a 6b 7c 3f ca 2a 87 3f
       1.0867968 0.99703366 0.98601305 1.0559933
000020 01 1d 7c 3f 55 84 80 3f 53 f0 79 3f ba 87 76 3f
       0.98481756 1.0040385 0.9763233 0.9630085
000030 fd 24 7d 3f 3c bb 81 3f 5d 4a 8b 3f 42 58 80 3f
       0.98884565 1.0135264 1.0882069 1.0026934
000040 69 02 7d 3f 6e 7a 70 3f 1d 0f 84 3f c4 9c 80 3f
       0.988318 0.9393681 1.0317112 1.0047841
000050 b9 5c 75 3f 07 77 79 3f e4 4f 77 3f fb ad 88 3f
       0.9584461 0.97447246 0.9660628 1.0678095
000060 ad ce 81 3f 98 fb 86 3f aa 5d 6d 3f cc aa 83 3f
       1.0141197 1.054553 0.92721045 1.0286498
000070 a4 b5 83 3f c6 1a 7c 3f 17 d4 80 3f 07 b1 83 3f
       1.0289807 0.98478353 1.0064725 1.02884
000080 e3 ce 8e 3f a7 80 7d 3f d6 21 84 3f 4c d8 80 3f
       1.1156887 0.9902443 1.0322826 1.0066009
000090 ed b0 82 3f 1b ac 80 3f 20 27 79 3f cb 2f 73 3f
       1.0210243 1.0052522 0.97325325 0.949948
0000a0 8d fb 6e 3f 34 22 8d 3f 28 a8 84 3f 7c 03 7e 3f
       0.93352586 1.1026063 1.0363817 0.99224067
0000b0 da 1c 80 3f 81 46 7d 3f 09 10 81 3f b1 b9 81 3f
       1.0008805 0.98935705 1.0083019 1.0134794
0000c0 3d b4 82 3f 15 20 84 3f b4 db 80 3f 83 fb 75 3f
       1.0211254 1.0322291 1.0067048 0.960869
0000d0 76 05 83 3f 0e 3c 6c 3f 09 df 91 3f 2f d1 7a 3f
       1.0236042 0.92279136 1.139619 0.9797544
0000e0 23 3c 7b 3f b5 46 70 3f 13 bb 7f 3f 29 a4 82 3f
       0.98138636 0.9385789 0.9989483 1.0206348
0000f0 8b cf 87 3f 72 83 83 3f 17 8c 87 3f d3 4f 82 3f
       1.0610212 1.0274489 1.0589627 1.018061
000100 ef e9 83 3f a2 4f 78 3f 4d b4 76 3f 3c 5f 7f 3f
       1.0305766 0.9699651 0.9636887 0.9975469
000110 15 af 86 3f 05 e8 80 3f ef 64 90 3f c2 e0 76 3f
       1.0522181 1.0070807 1.1280802 0.96436703
000120 b2 27 73 3f cd 59 76 3f 0d f0 77 3f 9c b0 79 3f
       0.94982445 0.96230775 0.96850663 0.9753511
000130 41 e9 8c 3f 8a 6e 84 3f b3 99 76 3f 4f e5 82 3f
       1.1008683 1.0346234 0.96328276 1.022623
000140 13 e9 83 3f fa d7 72 3f a1 1b 82 3f fd ca 75 3f
       1.0305504 0.94860804 1.0164682 0.9601286
000150 cd be 86 3f 71 28 7d 3f 5f 32 86 3f 56 79 79 3f
       1.0526978 0.98889834 1.0484122 0.9745077
000160 14 ce 7e 3f 26 65 7d 3f a2 14 82 3f c8 6a 8b 3f
       0.995332 0.98982465 1.0162547 1.0891962
000170 4b a3 88 3f 2d 96 84 3f 21 23 87 3f 67 2c 8b 3f
       1.0674833 1.035833 1.0557595 1.0872926
000180 c1 3e 7f 3f ce bc 81 3f fa b2 79 3f d7 c1 81 3f
       0.9970513 1.0135744 0.9753872 1.013728
000190 9f 12 83 3f d4 de 6b 3f 48 3d 77 3f 19 25 7c 3f
       1.0240058 0.92136884 0.9657788 0.98494107
0001a0 47 9b 75 3f ce 6e 6e 3f 0f b3 83 3f 1a 8e 84 3f
       0.9594006 0.93137825 1.0289019 1.0355866
0001b0 f8 ee 80 3f f9 30 77 3f 75 5e 7a 3f 00 f5 81 3f
       1.0072927 0.965591 0.9780038 1.0152893
0001c0 97 ed 81 3f 32 c9 7e 3f 34 3c 80 3f a7 65 86 3f
       1.0150632 0.9952575 1.0018373 1.0499772
0001d0 6f 39 7c 3f 0b f3 80 3f 20 e4 80 3f 8e 7d 81 3f
       0.98525137 1.0074171 1.0069618 1.0116441
0001e0 c3 ce 8c 3f 72 46 8d 3f 36 67 75 3f 3d 47 77 3f
       1.1000599 1.1037123 0.9586061 0.96593076
0001f0 2a 4a 7a 3f ca 7a 6b 3f d3 83 86 3f e4 f5 74 3f
       0.97769415 0.91984236 1.050898 0.956877

layer_norm.bias f4 [128]
000000 29 d1 ad bd 3b d5 83 bd 42 bf 04 bd 8d 26 85 bd
       -0.0848716 -0.06437155 -0.03240896 -0.065014936
000010 ae ca 2f bd 7f cd 61 bd c1 c8 7a bd 1d c1 2c bd
       -0.0429179 -0.055127617 -0.06122661 -0.042176355
000020 e9 31 80 bd dc 62 ea bc a5 f0 67 bd 90 be 31 bd
       -0.062595196 -0.028611593 -0.05662598 -0.043394625
000030 01 2d 2b bd 62 9a 3b bd 5b 57 18 bd b8 57 44 bd
       -0.041790966 -0.045801528 -0.037192684 -0.047935218
000040 f4 eb 43 bd 58 5b 7f bd fa 97 84 bd ed d4 5c bd
       -0.047832444 -0.06234297 -0.064743 -0.053914
000050 97 09 80 bd 13 22 84 bd 65 cc 32 bd 08 89 41 bd
       -0.06251829 -0.06451812 -0.043651957 -0.047249824
000060 f9 e8 a2 bc 2d c5 29 bd ac 38 72 bd a7 c9 80 bd
       -0.01988648 -0.041447807 -0.059136078 -0.06288462
000070 c7 e1 25 bd 5a d7 57 bd 98 12 a6 bd ba a6 e5 bc
       -0.04049852 -0.05269561 -0.08109015 -0.028033603
000080 6a 09 31 bd 11 cc 2a bd a8 fd c8 bc 59 d9 33 bd
       -0.04322187 -0.04169852 -0.024535015 -0.04390845
000090 c4 bb 4d bd bf e7 c6 bc 10 75 7f bd 82 a7 99 bd
       -0.050227895 -0.024280427 -0.0623675 -0.07502653
0000a0 da bd 72 bd e4 79 17 bd 36 6a 35 bd 9d 94 5e bd
       -0.059263088 -0.03698148 -0.044290744 -0.054340947
0000b0 76 17 7d bd c0 af 16 bd c1 e0 5a bd b1 c5 83 bd
       -0.061789952 -0.036788702 -0.053437 -0.06434191
0000c0 97 47 fd bc cb 7d fe bc 14 4a 27 bd 3f 25 7c bd
       -0.030917926 -0.031065842 -0.04084213 -0.06155896
0000d0 fa 4c 39 bd 86 68 74 bd 75 82 df bc 34 78 49 bd
       -0.045239426 -0.059669994 -0.027283886 -0.0491869
0000e0 9a b9 39 bd dd b3 73 bd 73 6e 41 bd 5b 4b 23 bd
       -0.04534302 -0.059497703 -0.047224473 -0.039866786
0000f0 a5 07 bb bc 59 34 74 bd 0e cb 44 bd 8e b3 17 bd
       -0.022830794 -0.059620235 -0.04804521 -0.03703647
000100 74 e7 3c bd 3d 65 6a bd a9 5b 50 bd ca 88 43 bd
       -0.04611917 -0.057225455 -0.050868664 -0.047737874
000110 be f0 0d bd 4e e1 4c bd 8b c3 2c bd e5 dc 1a bd
       -0.034653418 -0.050019555 -0.04217867 -0.037808318
000120 8c 32 86 bd 11 04 34 bd f7 bb 8c bd 6e 28 cb bd
       -0.0655261 -0.04394919 -0.06871789 -0.09919821
000130 70 51 08 bd 01 0d 9d bc c0 51 89 bd bd 6a 2e bd
       -0.03328079 -0.01917124 -0.06705046 -0.042582262
000140 c8 f6 30 bd 5b 1b 33 bd 70 03 63 bd 1f bf 5a bd
       -0.0432041 -0.04372726 -0.0554232 -0.053404924
000150 12 af 5b bd bf 8d 99 bd 91 71 02 bd 94 cf 27 bd
       -0.053633757 -0.07497739 -0.031846587 -0.040969446
000160 17 97 85 bd e7 64 6c bd 3e ca 32 bd e7 4f 0e bd
       -0.06522959 -0.057713415 -0.043649904 -0.03474417
000170 74 ae 6f bd 63 01 87 bd 77 73 4e bd 81 98 17 bd
       -0.05851598 -0.06592061 -0.050403085 -0.037010673
000180 73 2e 1e bd 47 0f 63 bd 8f f8 60 bd 38 ea 56 bd
       -0.038618516 -0.05543449 -0.054924544 -0.052469462
000190 f4 90 79 bd f6 6d 19 bd e2 a7 9f bd 45 bd c0 bd
       -0.060929254 -0.037458383 -0.07795693 -0.094111
0001a0 0c 35 86 bd 81 a4 ac bd d6 b2 fc bc 24 65 35 bd
       -0.06553087 -0.08429814 -0.030846994 -0.04428591
0001b0 7f 3c 9c bd 72 b4 4d bd a7 52 85 bd 3d b1 19 bd
       -0.07628726 -0.050220914 -0.06509905 -0.037522543
0001c0 ed 75 56 bd 69 e2 1d bd 3f c9 3e bd 47 ef a8 bc
       -0.052358557 -0.038546 -0.046578642 -0.020621909
0001d0 ee 94 6b bd dd e6 66 bd 48 3e 79 bd 5f 3c 62 bd
       -0.057515077 -0.056372512 -0.06085041 -0.055233356
0001e0 93 86 39 bd 07 6f 0f bd 45 8b 99 bd 32 45 3b bd
       -0.045294356 -0.035017993 -0.07497267 -0.045720287
0001f0 bc a2 17 bd 8a 66 ad bd df 61 58 bd 04 9f 75 bd
       -0.03702043 -0.084668234 -0.052827712 -0.059966102
